weights/SpO2/qat/quant_fc_5bits_data_2bits_weights.pth (torch, 6751 bytes, 1 tensors)

fc1.weight f4 [1, 300]
0.03186784 0.00541692 0.031446446 0.030927949 0.030221846 0.015516991 0.032372486 0.031513967
0.03164037 0.032162793 0.033220854 0.030159691 0.030514605 1.9738422e-05 0.030106086 0.002939598
0.011610609 0.012461391 0.02506976 0.020713348 0.021729741 0.0022926817 0.02943541 0.025957026
-0.03154297 0.006850957 0.0085642105 -0.032525625 -0.0033594188 0.02504512 -0.031609457 -0.026095197
0.006759224 -0.029695932 -0.031684496 -0.01822578 -0.030399228 0.021857003 0.02883446 0.022372497
-0.029928211 0.017860767 0.008524176 -0.0069166766 0.025580794 0.026531234 -0.010154526 -0.029604778
0.004558668 -0.02736974 -0.008042972 -0.017649973 -0.015062866 0.0011196265 0.009070897 -0.0038237043
-0.03206457 0.0054747947 0.028620744 0.030459624 -0.031402428 0.0012930414 -0.027481947 -0.022879422
-0.025774041 -0.031267878 -0.032174956 0.029510483 0.029208008 0.03119918 -0.01023931 0.0069240117
-0.030502485 0.027983535 -0.03196714 0.00550563 0.026659803 -0.023594392 0.028794816 -0.020502852
-0.027970305 0.030219415 -0.010982059 0.027854407 -0.0166068 -0.025694497 -0.021886047 0.0073672645
0.022881757 -0.026918545 -0.02583819 0.02295334 0.011183008 -0.011774931 0.010429032 -0.017054658
0.007858712 0.005829707 -0.005111274 -0.013997074 -0.031144138 0.027249472 -0.030958392 -0.01555375
0.028965538 0.02812059 -0.017131552 -0.00077603944 0.01967971 0.03250092 -0.024969958 -0.025464403
-0.0027106812 -0.03182694 -0.025272185 -0.011609896 0.02847065 0.024788205 -0.025133705 0.02286988
-0.03245594 0.026620971 0.023725975 -0.025036307 -0.006288939 0.031651866 -0.020513056 -0.018598188
-0.011828602 0.03095074 -0.03189671 0.012601489 -0.01693275 0.016888402 0.031572096 -0.030327015
-0.0103484085 -0.024807654 0.026215523 -0.028122976 0.018300842 0.028571153 -0.009602883 -0.0127572855
-0.032123253 0.027426697 0.021406109 -0.030369965 0.02917402 0.017675243 -0.030880313 -0.00084675034
0.031153183 0.004588465 -0.030139225 0.033114355 0.031740736 -0.021119531 0.013061181 -0.01322644
-0.01211512 -0.012507771 0.058412835 -0.00416395 0.0314133 0.0130483685 -0.017908452 -0.024237413
-0.028730405 0.031865027 -0.019551251 0.03214337 -0.0040391665 -0.023838613 -0.014866539 0.026632525
0.028609917 0.027040234 -0.031233538 0.029599154 0.008735507 -0.0008627845 -0.031890195 -0.016557088
-0.029356606 -0.032304876 -0.02175662 0.02733817 -0.030818613 0.021426907 0.0056380928 0.029052956
0.026953785 0.0072110556 -0.019165076 0.031193897 -0.0023799536 -0.026729386 0.004540726 0.0073909014
0.027712313 -0.026350396 0.010814045 -0.008725235 0.029116783 -0.022493219 0.02867466 -0.019870285
0.029630227 -0.02886684 0.0092844665 -0.016952898 -0.014036238 0.031456776 -0.03135486 0.00905143
-0.028429668 0.030115232 -0.017673299 -0.0063431105 -0.032236148 0.017617885 0.03124863 0.030219724
-0.031386077 -0.02914523 -0.027605873 -0.010867231 -0.03038987 -0.009445892 -0.017752891 -0.010006563
0.026928496 0.006385373 0.00846737 0.0042303507 0.015190007 -0.0065126745 -0.020087348 0.0073631075
-0.01809014 0.03130212 -0.021895945 -0.008135512 -0.030035326 0.032954574 0.012788752 0.024655024
0.031777266 -0.031262487 0.010160188 0.018902961 -0.027074045 -0.025665363 -0.02267413 0.02966341
00000000: da87 023d 6b80 b13b fdcd 003d 9c5c fd3c
00000010: ce93 f73c fa3a 7e3c 0399 043d ca14 013d
00000020: 5599 013d 22bd 033d 9712 083d 7511 f73c
00000030: c4f9 f93c f093 a537 0aa1 f63c 45a6 403b
00000040: 6c3a 3e3c dd2a 4c3c 195f cd3c 0aaf a93c
00000050: 9202 b23c d140 163b 8722 f13c d4a3 d43c
00000060: 3433 01bd fe7d e03b e750 0c3c 9739 05bd
00000070: b229 5cbb 6c2b cd3c eb78 01bd 98c5 d5bc
00000080: 7b7c dd3b e244 f3bc 9ac7 01bd 3b4e 95bc
00000090: cd07 f9bc 750d b33c 3f36 ec3c 8746 b73c
000000a0: 022c f5bc be50 923c fca8 0b3c 4aa5 e2bb
000000b0: d08e d13c 0858 d93c 2b5f 26bc b885 f2bc
000000c0: e160 953b 8136 e0bc abc6 03bc ad96 90bc
000000d0: 3dca 76bc 6ec0 923a 199e 143c 1d97 7abb
000000e0: 2356 03bd e865 b33b 0d76 ea3c 7686 f93c
000000f0: d59f 00bd 457b a93a d221 e1bc a06d bbbc
00000100: 1524 d3bc bf12 00bd e3c9 03bd f8bf f13c
00000110: a245 ef3c 6c95 ff3c c7c2 27bc d2e2 e23b
00000120: 59e0 f9bc ba3d e53c faef 02bd 9268 b43b
00000130: a965 da3c 0749 c1bc 1be3 eb3c 99f5 a7bc
00000140: fb21 e5bc b58e f73c 18ee 33bc ed2e e43c
00000150: fc0a 88bc 447d d2bc 5e4a b3bc 1869 f13b
00000160: 8672 bb3c 4884 dcbc 9daa d3bc a508 bc3c
00000170: ef38 373c a4eb 40bc 88de 2a3c 36b6 8bbc
00000180: d4c1 003c 2007 bf3b 797c a7bb fc53 65bc
00000190: fe21 ffbc 493a df3c 749c fdbc 28d5 7ebc
000001a0: 2349 ed3c 275d e63c 7857 8cbc 206f 4bba
000001b0: 5837 a13c af1f 053d cc8d ccbc b99a d0bc
000001c0: afa5 31bb f75c 02bd 9d07 cfbc 6f37 3ebc
000001d0: 483b e93c a210 cb3c 33e5 cdbc 9d59 bb3c
000001e0: 85f0 04bd 3914 da3c fa5c c23c f118 cdbc
000001f0: 7213 cebb 63a5 013d ff0a a8bc 3a5b 98bc
00000200: c1cc 41bc 688c fd3c 20a6 02bd 7a76 4e3c
00000210: 8db6 8abc 8c59 8a3c be51 013d 5c70 f8bc
00000220: 5f8c 29bc 6c39 cbbc f0c1 d63c 2862 e6bc
00000230: a6eb 953c 0d0e ea3c 6955 1dbc ef03 51bc
00000240: ac93 03bd f4ad e03c dd5b af3c 6fca f8bc
00000250: 5bfe ee3c accb 903c b6f8 fcbc 74f8 5dba
00000260: f634 ff3c d65a 963b 89e6 f6bc eba2 073d
00000270: 9302 023d de02 adbc 90fe 553c b6b3 58bc
00000280: 7f7e 46bc 65ed 4cbc 4c42 6f3d bf71 88bb
00000290: 3cab 003d d3c8 553c bfb4 92bc 8a8d c6bc
000002a0: 075c ebbc e784 023d f229 a0bc c4a8 033d
000002b0: fc5a 84bb 3249 c3bc c992 73bc 742c da3c
000002c0: 585f ea3c 7b83 dd3c 7add ffbc ed79 f23c
000002d0: 5f1f 0f3c 7d2c 62ba 4b9f 02bd bba2 87bc
000002e0: 447d f0bc 1e52 04bd f03a b2bc 4cf4 df3c
000002f0: 5177 fcbc 7b87 af3c c0bf b83b 7700 ee3c
00000300: 2fce dc3c b84a ec3b 1400 9dbc 588a ff3c
00000310: fff8 1bbb 96f7 dabc 5fca 943b 602f f23b
00000320: ef04 e33c c9dc d7bc 642d 313c 4af4 0ebc
00000330: 5286 ee3c b343 b8bc 1fe7 ea3c 02c7 a2bc
00000340: 17bb f23c 277a ecbc e01d 183c cee0 8abc
00000350: 40f8 65bc d2d8 003d f46d 00bd 734c 143c
00000360: 56e5 e8bc 38b4 f63c 98c7 90bc ded9 cfbb
00000370: 0d0a 04bd 6253 903c 20fd ff3c 5b8f f73c
00000380: b08e 00bd fac1 eebc b625 e2bc 780c 32bc
00000390: 2df4 f8bc f1c2 1abc 836e 91bc 91f2 23bc
000003a0: 2699 dc3c 643c d13b b9ba 0a3c c19e 8a3b
000003b0: 82df 783c 4668 d5bb 398e a4bc 3946 f13b
000003c0: c631 94bc a736 003d 205f b3bc cf4a 05bc
000003d0: a50c f6bc 60fb 063d ea87 513c 55f9 c93c
000003e0: e128 023d 180d 00bd eb76 263c 62da 9a3c
000003f0: 63ca ddbc 2b40 d2bc 19bf b9bc ae00 f33c
