weights/SpO2/qat/quant_fc_5bits_data_4bits_weights.pth (torch, 6751 bytes, 1 tensors)

fc1.weight f4 [1, 300]
0.010122603 0.03419905 0.038719505 0.03913937 0.040875584 0.040129393 0.040486068 0.038949173
0.039753895 0.0399683 0.04015944 0.039445363 0.03978681 0.039351996 0.039413705 0.031338964
0.0048934147 0.03310496 0.0115418 0.03390551 -0.021128464 -0.022243548 0.005872711 -0.0386771
-0.0070209093 -0.035428893 0.00854444 -0.03738294 -0.0056464276 0.0010020826 -0.01841515 0.0018531604
-0.0071314555 0.0062179575 -0.031265676 0.013627577 0.040432706 -0.021595588 0.031002007 -0.031068979
-0.0066905306 -0.026220383 0.0013740527 -0.033555727 0.005849377 0.021181526 -0.019841297 0.02214257
0.005301161 -0.03209356 0.019944672 0.011013789 -0.006671978 -0.022614438 -0.031216098 -0.03229492
0.0105440365 0.031074654 -0.011636376 0.01868561 0.013656878 -0.039865337 -0.03736803 -0.021083737
0.013013646 0.026846418 -0.031707622 -0.03551866 -0.007305301 -0.010157155 -0.025330652 0.017207269
0.015876217 -0.029563216 0.021174699 0.033158667 -0.011105709 0.029888025 -0.032917317 -0.03430472
0.019749435 0.019798012 -0.035353117 -0.036232788 0.029692026 -0.032596912 0.0018919312 0.01331293
-0.024838423 -0.028361106 0.0340001 0.015930263 0.020246502 0.027305415 -0.011200358 -0.026408453
-0.00724198 -0.020749385 -0.0035213504 -0.0042419443 0.008907921 0.01773143 -0.03504696 0.016319409
-0.006413128 -0.019798024 0.018272018 -0.020642566 0.030850617 0.03611025 -0.01959804 0.03112389
-0.01734443 -0.025721569 -0.033834856 0.029583598 0.031097073 -0.008928448 -0.02129974 -0.03559084
-0.0086293435 -0.014845471 -0.012096031 0.003078765 -0.028879482 0.036129486 0.010744602 0.025453264
-0.008059585 0.006693767 -0.02058142 0.013756491 0.0069439113 -0.005612557 -0.002307045 0.0247598
-0.025537502 -0.035272695 -0.0055731796 0.029625827 0.03270716 -0.0150973415 -0.014977495 -0.030099222
0.03569362 0.015140151 -0.01089993 0.0019232068 -0.02457658 -0.027265863 0.02146615 -0.022234112
0.015111745 0.034888692 -0.0191942 0.009575715 -0.03335119 -0.0034029386 0.031416863 0.029173382
-0.023173327 0.033827033 0.036773905 -0.020112775 -0.005656767 -0.029324139 0.00555305 0.033494927
0.028106306 0.034262456 -0.028659666 -0.02171161 -0.019537939 0.005122504 0.0071247537 0.008853544
-0.028951894 0.004213765 -0.011675292 -0.015428561 0.02257831 -0.010144224 0.0074469983 0.01231574
0.017716616 0.0034414583 -0.010012876 -0.0036504027 -0.034856763 -0.0047994643 -0.013668816 -0.038237497
-0.034860093 0.035927363 0.029039241 -0.018647991 0.035720587 0.016500566 -0.014512617 0.019587414
-0.011235056 -0.034648087 -0.0077295965 0.02549535 0.030983329 0.009401336 0.015945055 0.023583356
0.011824431 0.025365174 0.0149549525 -0.033926096 -0.019093296 0.0018424802 -0.031754665 -0.0078029735
-0.028613232 -0.0019570512 -0.03148993 0.032522872 0.0010637937 0.033212956 -0.033698343 -0.024136424
0.014183945 0.011919684 -0.035956837 -0.0030299944 0.0021206106 -0.039465535 0.029910784 0.017384775
-0.030710734 0.03413979 -0.024916068 -0.030329896 -0.029386794 0.035875943 0.0003800237 0.03032236
-0.014798711 -0.031337608 -0.008045448 0.031622026 -0.0036200404 0.040433176 0.012994341 -0.031964347
0.02282335 0.026724132 -0.018818095 -0.035110895 -0.01615086 -0.030384095 0.03294989 -0.0154840015
00000000: 46d9 253c 4e14 0c3d 5898 1e3d 9b50 203d
00000010: 286d 273d b85e 243d b8d4 253d 2b89 1f3d
00000020: fbd4 223d cdb5 233d 3a7e 243d 7691 213d
00000030: 7ef7 223d 8f2f 213d 4470 213d 495d 003d
00000040: f058 a03b 1199 073d d119 3d3c 81e0 0a3d
00000050: 9a15 adbc 1a38 b6bc df6f c03b e16b 1ebd
00000060: a80f e6bb e31d 11bd fbfd 0b3c db1e 19bd
00000070: ab05 b9bb 5058 833a 5edb 96bc bfe5 f23a
00000080: fcae e9bb 02c0 cb3b 7010 00bd 3346 5f3c
00000090: c49c 253d 3be9 b0bc ecf7 fd3c 5f84 febc
000000a0: 3d3c dbbb 21cc d6bc 8f19 b43a bb71 09bd
000000b0: 21ac bf3b e184 ad3c 378a a2bc 5664 b53c
000000c0: 5db5 ad3b 8974 03bd 0263 a33c 2e73 343c
000000d0: 9ca0 dabb ea41 b9bc e7b8 ffbc ae47 04bd
000000e0: e5c0 2c3c 4690 fe3c 80a6 3ebc 9012 993c
000000f0: 19c1 5f3c d649 23bd 380f 19bd cdb7 acbc
00000100: 3037 553c 05ed db3c dadf 01bd 047c 11bd
00000110: 4e61 efbb 326a 26bc 3a82 cfbc 42f6 8c3c
00000120: d70e 823c 8f2e f2bc 9076 ad3c 62d1 073d
00000130: b8f4 35bc bbd7 f43c 4fd4 06bd 1b83 0cbd
00000140: 91c9 a13c 712f a23c 6ece 10bd d568 14bd
00000150: b13c f33c 5784 05bd adfa f73a 7a1e 5a3c
00000160: f379 cbbc 8d55 e8bc b043 0b3d 2f80 823c
00000170: fedb a53c 9baf df3c b581 37bc 8a56 d8bc
00000180: 224e edbb 9dfa a9bc 75c6 66bb 0200 8bbb
00000190: 87f2 113c 8141 913c 678d 0fbd 48b0 853c
000001a0: 3825 d2bb 772f a2bc 33af 953c 991a a9bc
000001b0: 6fba fc3c 57e8 133d 128c a0bc 87f7 fe3c
000001c0: e815 8ebc 0ab6 d2bc 6b96 0abd 4d59 f23c
000001d0: 4abf fe3c a048 12bc cb7c aebc b3c7 11bd
000001e0: 1762 0dbc 6b3a 73bc 6e2e 46bc 1bc5 493b
000001f0: aa94 ecbc 83fc 133d 210a 303c 5d83 d03c
00000200: 590c 04bc 6357 db3b 5e9a a8bc e862 613c
00000210: c089 e33b 8ae9 b7bb cb31 17bb 10d5 ca3c
00000220: 0634 d1bc 1a7a 10bd 389f b6bb ddb1 f23c
00000230: f1f7 053d d75a 77bc 2b64 75bc a592 f6bc
00000240: 7933 123d 650e 783c 9f95 32bc 1d14 fc3a
00000250: d354 c9bc a95c dfbc c8d9 af3c 5024 b6bc
00000260: 4197 773c 72e7 0e3d 283d 9dbc 76e3 1c3c
00000270: 429b 08bd d603 5fbb f8ae 003d 04fd ee3c
00000280: fdd5 bdbc 378e 0a3d 3ca0 163d 8cc3 a4bc
00000290: 675c b9bb 2d39 f0bc 5cf6 b53b fa31 093d
000002a0: 323f e63c ca56 0c3d adc7 eabc 8cdc b1bc
000002b0: 070e a0bc aeda a73b c476 e93b 740e 113c
000002c0: 862c edbc 9f13 8a3b b949 3fbc 13c8 7cbc
000002d0: 26f6 b83c f633 26bc f305 f43b f5c7 493c
000002e0: 7022 913c 178a 613b 0c0d 24bc 983b 6fbb
000002f0: f7c5 0ebd d344 9dbb 2bf3 5fbc ec9e 1cbd
00000300: 75c9 0ebd 9228 133d b4e3 ed3c acc3 98bc
00000310: c04f 123d 322c 873c 54c6 6dbc c975 a03c
00000320: 3e13 38bc 27eb 0dbd 8e48 fdbb a0db d03c
00000330: c0d0 fd3c 1008 1a3c 349f 823c e231 c13c
00000340: 42bb 413c a0ca cf3c 9e05 753c 17f6 0abd
00000350: 8b69 9cbc 607f f13a 2e11 02bd 16b0 ffbb
00000360: 4c66 eabc df41 00bb 96fb 00bd b436 053d
00000370: fe6e 8b3a 4f0a 083d 4607 0abd c0b9 c5bc
00000380: c763 683c c74a 433c 7a47 13bd df92 46bb
00000390: f1f9 0a3b 9da6 21bd 7607 f53c 846a 8e3c
000003a0: 1495 fbbc 2ad6 0b3d c81c ccbc 6776 f8bc
000003b0: 93bc f0bc a7f2 123d eb3d c739 9966 f83c
000003c0: 4b76 72bc dd5b 00bd 0ed1 03bc 1986 013d
000003d0: 333e 6dbb 429d 253d 37e6 543c 0ced 02bd
000003e0: 09f8 ba3c 91ec da3c 6828 9abc 71d0 0fbd
000003f0: cf4e 84bc 11e8 f8bc 77f6 063d 9cb0 7dbc
