weights/SpO2/qat/quant_fc_5bits_data_3bits_weights.pth (torch, 6751 bytes, 1 tensors)

fc1.weight f4 [1, 300]
00000000: fc54 e83c d138 ec3c 4062 eb3c 516c ed3c
00000010: d5ba 963c c604 ef3c 0d61 e63c 5925 e53c
00000020: 5bb6 eb3c 1834 ec3c c784 eb3c 1b74 e43c
00000030: 6cc4 e73c 78e3 ed3c b4b8 ed3c 94b7 ea3c
00000040: 688a 263c 52d0 eb3c 51d9 eb3c 0ce9 07bb
00000050: 506b a13c a57c fe3b 2285 8bbc fae1 71ba
00000060: 80ef e6bc cccf 4f3b ea7c 97bc b150 c3bc
00000070: ee2d 2bbc 5e5f b8bb 6d9e e6bc 4a96 ccbb
00000080: 4695 95bb 4b72 073c 842e f0ba 1a1a e63c
00000090: 489e d33c c0fc 8fbc 2643 473c 2fa5 e5bc
000000a0: 8473 72bc 37f4 e5bc 9828 e8bc ff17 033b
000000b0: 4dbb 9fbc b85b ea3c dea1 213c b21c e13c
000000c0: 20ba e7bc dcd7 e73c 83d1 e9b9 335f 043c
000000d0: 9405 e8bc b622 e4bc 0f78 ec3c 9e83 033c
000000e0: aba8 d2bc ab1b ed3c 88a0 c7bc a402 8b3c
000000f0: d550 b2bc d162 3dbc bc72 e4bc 1a6a a43c
00000100: 67cb e7bc 5fcb e7bc 3345 e6bc a3f3 e7bc
00000110: 0572 e7bc 4206 e53c 74b4 ed3c fd9a e03c
00000120: 2c18 ec3c 256c e7bc e522 d2bc 2797 e53c
00000130: 2d89 e4bc fc70 e13c 83cc d4bc be73 ea3c
00000140: 5970 81bc 7df6 b2bc 4e43 e3bc eb94 c63c
00000150: 1e63 443c 7bb1 95bb ca82 e6bc c624 debc
00000160: 0c00 303c c34e e23c e16a d3bc a6de e93c
00000170: 0443 a0bc ed60 49bc 33e0 22bc dd3a 583c
00000180: 8ea1 d13c cbe0 a2bb 059b f7bb 6e53 96bb
00000190: b5e3 b23b da62 ea3c 91f3 733c 9882 a8bc
000001a0: c860 a0bb 5479 3cbb f296 e6bc d458 61bc
000001b0: 2732 073c 7248 d9bc 83c9 ec3c c984 d4bc
000001c0: 02a2 92bc c65c ec3c f67b c93c 732d e1bc
000001d0: 3f6b 193c 5662 993b 293b d13c 9518 863c
000001e0: a448 16bc d48d bbbc e3d8 d73c f84f b0bc
000001f0: 7916 553b 8f31 bcbc 145b 83bc ebd8 e7bc
00000200: 4139 c03c 212f d7bb 6616 e7bc ee22 8c3c
00000210: 35f9 a33c b4b4 eb3c b138 a33b 4ab9 e7bc
00000220: f149 ea3c e9fc d63c 02f6 e83c e695 e5bc
00000230: 6024 afbc 0fe1 d9bc 2e0a 263c 6f2c b63b
00000240: d4cb aa3c d648 18bc 8ac6 9cbb 4ae9 b9bc
00000250: 0516 00bc 7e31 e1bc 9aed e63c 6792 e43c
00000260: d2ac b33b a17e 99ba 9fc7 e8bc 6918 823b
00000270: 20bb e63c aa4b f63a 7eb1 d8bc 07a7 e63c
00000280: 2e3d ed3c f290 4a3a 5f5c ea3c cf5e 0ebc
00000290: d529 c4bc f8da 373c d1a2 80bc c45b 4cbb
000002a0: 2460 ec3c 2a54 ec3c 5d53 7fbc 0276 c63a
000002b0: 0850 77bc e156 e5bc c861 2d3c 90de e73c
000002c0: e33b d83c 9d62 92bc 3a3f 97bc 98a0 60bc
000002d0: 5106 91bc 48c4 d03c 9147 9c3c 93d4 0d3c
000002e0: 1e6c c6bc 457f e6bc 85ae ec3c 63ca 4fbc
000002f0: f451 e5bc eaaf dfbc ff6e 913c a156 fc3a
00000300: bedf bfbc 30c2 e4bc 7616 ee3c 1216 ee3c
00000310: 82cb 7dbc 6c30 eb3c 01f6 c63b f087 afbc
00000320: 5a4f ea3c 1e3a e1ba 3375 903b 4801 e93c
00000330: 7d00 a3bb 69de f13b 01da e43c aa1a d8bc
00000340: 2206 c6bc b0f7 e53b f768 58bc d0a8 e53c
00000350: 9b95 a53c 72f7 de3c 728c e4bc 1a42 72bc
00000360: 5b14 76bc 2087 e7bc 79a0 dfbc 427b b63c
00000370: 065f e6bc 3d01 ec3c 36ae 99bb 947b 83bc
00000380: 89a9 e73c b044 0d3a 83b7 c6bc 6472 d7bc
00000390: 5677 e73c 6712 aabc e52a e2bc bf24 84b9
000003a0: 33b0 abbc b064 6fbc ad0c e33c 440b d9bc
000003b0: 3496 e53c 32b1 cb3c 04cb ddbc 5b05 ee3c
000003c0: 4c40 dfbc cb8e a8bc 610b f4ba 8743 e53c
000003d0: 932a 243c e216 7b3c f230 e2bc 238e ca3b
000003e0: 2ea0 d23c e393 e63c 5b8e 8abc 26f1 e5bc
000003f0: 5879 e7bc 8f87 e6bc 637a a33c a3ed e13c
0.028360836 0.028835686 0.028733373 0.028982313 0.018399635 0.02917708 0.02812245 0.02797191
0.028773477 0.028833434 0.028749837 0.027887395 0.028291903 0.02903913 0.029018737 0.02865199
0.010164835 0.028785858 0.028790148 -0.0020738272 0.01970449 0.0077663236 -0.017031256 -0.00092270935
-0.028190374 0.003170955 -0.01849218 -0.023842188 -0.010447962 -0.005626603 -0.028151715 -0.006243502
-0.004564914 0.008266996 -0.001832441 0.028088618 0.02583231 -0.017576575 0.0121620055 -0.028032867
-0.014798049 -0.028070552 -0.02833967 0.0020003316 -0.019498492 0.028608188 0.009865252 0.027479503
-0.028286994 0.028301172 -0.00044597322 0.008079338 -0.028322972 -0.027848583 0.028865842 0.008026985
-0.025715193 0.028943857 -0.02436854 0.016969033 -0.02176706 -0.011559204 -0.02788674 0.020070124
-0.028295232 -0.028295217 -0.028109169 -0.028314417 -0.028252611 0.027957086 0.02901671 0.027417654
0.02882012 -0.02824981 -0.025651405 0.028026177 -0.027897442 0.027519695 -0.025976425 0.028619643
-0.015800642 -0.02184605 -0.027742054 0.024240931 0.011986522 -0.0045682765 -0.028138537 -0.027117144
0.010742199 0.027625447 -0.0258078 0.02854855 -0.019563206 -0.012291175 -0.009941149 0.013197628
0.02558973 -0.004970645 -0.0075563216 -0.0045875823 0.0054592737 0.02861159 0.014889614 -0.020570084
-0.0048943497 -0.002875884 -0.028148148 -0.013754088 0.008251703 -0.026523802 0.028904682 -0.025942223
-0.017899517 0.028852832 0.024595242 -0.027487492 0.009363948 0.004680912 0.025540905 0.016369144
-0.009172592 -0.022894777 0.026348537 -0.021522507 0.0032514615 -0.02297285 -0.01603464 -0.028301677
0.0234648 -0.0065668975 -0.028208923 0.0171065 0.020016292 0.02877269 0.0049811234 -0.028286595
0.028599711 0.026243644 0.028437618 -0.028025579 -0.02137965 -0.026596574 0.010134263 0.005559496
0.020849146 -0.009294709 -0.00478441 -0.022694249 -0.00781775 -0.02748942 0.02818947 0.027901841
0.0054832483 -0.0011710712 -0.0284155 0.003970195 0.0281654 0.001879086 -0.026451822 0.028155817
0.028959837 0.0007727287 0.0286085 -0.008689596 -0.023945728 0.01122164 -0.015702637 -0.0031182626
0.028854437 0.028848726 -0.01558384 0.001514137 -0.0150947645 -0.027995529 0.010582395 0.028304368
0.026395744 -0.017869288 -0.018462766 -0.0137101635 -0.017703207 0.02548422 0.019077094 0.008656639
-0.024221476 -0.028136859 0.028891811 -0.01268253 -0.02799318 -0.027305562 0.017753122 0.0019251892
-0.023422118 -0.027924627 0.029063445 0.029063258 -0.015490415 0.028709613 0.0060718064 -0.021427125
0.02860229 -0.0017183458 0.0044085025 0.028442994 -0.0049744234 0.0073812497 0.027935984 -0.026379902
-0.024172846 0.007018052 -0.013208619 0.028034598 0.020212939 0.0272176 -0.027899 -0.014786268
-0.015019502 -0.028262675 -0.027298199 0.02227557 -0.028121483 0.028809184 -0.004689957 -0.016050138
0.028279083 0.00053889584 -0.024257427 -0.026299663 0.028255146 -0.020760728 -0.027608344 -0.0002520438
-0.020958042 -0.014611408 0.027716005 -0.02649463 0.028025724 0.024864767 -0.027074344 0.029055288
-0.027252339 -0.020575901 -0.0018619114 0.027986301 0.010019916 0.01532528 -0.02761123 0.006181495
0.025711145 0.02814669 -0.016913584 -0.02806909 -0.028256103 -0.028140811 0.01995582 0.027579134
